weights.pt (torch_old, 52579 bytes, 6 tensors)

cnn.0.weight f4 [16, 3, 8, 8]
-0.008023566 0.061583932 0.021242337 -0.042638484 -0.3773109 -0.1863898 -0.025811106 0.028216481
0.0019445401 -0.064597525 0.09649083 -0.11005894 -0.2603247 -0.20932907 0.036235575 0.013418306
0.05116505 0.023935385 0.030831305 -0.18818061 -0.36188692 -0.19277734 0.019792145 0.05724194
-0.13059331 -0.06363342 0.053737603 -0.1833192 -0.2647887 -0.16349344 0.13938597 -0.0733028
0.00072093896 0.0025663758 0.019937372 -0.118003435 -0.25365347 -0.038869783 0.066776425 -0.048219103
-0.016292853 0.0011705279 0.083710186 -0.14591783 -0.2017337 -0.13779221 0.08845084 0.031073816
0.0679078 0.0108226305 0.0157741 -0.25697303 -0.30395263 -0.029416962 0.06548564 0.024107762
0.013978138 0.05310931 0.15213001 -0.22619706 -0.24835502 -0.187045 0.100707114 -0.050937586
-0.046614144 -0.0158466 0.09589629 -0.15170556 -0.40729082 -0.24240462 0.07472945 0.013768434
0.0038966855 -0.07262652 -0.035537116 -0.17885302 -0.35809538 -0.19093922 0.026425207 0.09198625
-0.037446298 -0.03187253 0.107259296 -0.23098265 -0.27758545 -0.19597772 0.08671805 -0.050216183
-0.075956255 0.017652908 0.09373616 -0.16101791 -0.2651557 -0.0840522 0.017494377 -0.043651592
0.02626225 -0.015844574 0.013080165 -0.23916192 -0.34911543 -0.12083156 0.044944245 -0.06965613
-0.0070858593 -0.018420564 -0.007081375 -0.2559591 -0.3390473 -0.18541817 0.09843673 0.041780278
0.061321635 -0.011423543 0.04277415 -0.2557966 -0.26857698 -0.189517 -0.00017182606 -0.043732487
0.024219047 0.027089622 0.07382856 -0.22474217 -0.333233 -0.18824998 0.020321589 -0.07155881
-0.005342294 -0.01386277 0.100339055 -0.08823929 -0.42267078 -0.14724004 -0.007265879 -0.04067353
-0.124183044 -0.080273695 0.057739552 -0.13652378 -0.28387684 -0.27861512 0.052936893 -0.026315989
-0.013261064 0.034936257 0.10474119 -0.14746268 -0.25950387 -0.23784621 0.06226517 -0.02606246
-0.037098855 -0.050468072 0.14528568 -0.19660696 -0.27961993 -0.11798543 0.09222498 -0.044562265
0.028839132 0.025149127 0.04677476 -0.23520741 -0.2831243 -0.16063485 0.016067637 0.0477218
0.0051193414 -0.009047112 0.013665611 -0.22022624 -0.24435678 -0.1686509 -0.025371414 0.0013860072
-0.015852364 0.082805865 0.14347097 -0.29806498 -0.27331346 -0.10301644 0.039397996 -0.025015824
0.076886415 0.09356605 0.09516554 -0.18772909 -0.3138764 -0.14567843 0.018846333 -0.032430675
0.03489299 0.08273903 0.024168216 -0.20877838 -0.30708 -0.18810658 0.011178783 0.12074567
-0.071020365 -0.03640291 0.096977144 -0.15287021 -0.28769007 -0.23528154 -0.037511308 0.047447324
-0.01166131 0.058142312 0.11631243 -0.18173017 -0.34948272 -0.21279202 -0.057708632 0.14027663
0.014996131 0.07771436 0.09960594 -0.20145279 -0.28070083 -0.025434395 -0.0711853 0.041613936
-0.09875629 0.08678679 0.07723153 -0.15243658 -0.21953446 -0.1210161 -0.120150335 0.10354193
0.009898037 0.05336825 0.06572823 -0.2431769 -0.16161975 -0.075704806 -0.12329289 -0.013878528
0.04516981 -0.022636931 0.07316863 -0.33206388 -0.15803733 -0.027220534 -0.15474433 0.037451442
-0.025557088 0.12147905 0.089346096 -0.23124245 -0.10019197 0.011650581 -0.13353047 -0.047322024
00000000: 4675 03bc 6f3f 7c3d 6904 ae3c b1a5 2ebd
00000010: e52e c1be f8dc 3ebe d071 d3bc 4026 e73c
00000020: f0df fe3a b54b 84bd fc9c c53d 9566 e1bd
00000030: 4749 85be 5c5a 56be c16b 143d 74d8 5b3c
00000040: 7292 513d 2414 c43c ef91 fc3c 6bb2 40be
00000050: 3e49 b9be 6c67 45be 2323 a23c 8676 6a3d
00000060: 41ba 05be 3d52 82bd f61b 5c3d 07b8 3bbe
00000070: 6292 87be d36a 27be 32bb 0e3e c71f 96bd
00000080: 65fd 3c3a a430 283b b353 a33c c9ab f1bd
00000090: dede 81be ec35 1fbd 14c2 883d 6581 45bd
000000a0: 9778 85bc 666c 993a 3f70 ab3d 7c6b 15be
000000b0: 4793 4ebe 6719 0dbe b725 b53d 848e fe3c
000000c0: 3f13 8b3d 6751 313c af38 813c f891 83be
000000d0: ae9f 9bbe d7fb f0bc 561d 863d a47d c53c
000000e0: 8f04 653c 2689 593d f8c7 1b3e 34a0 67be
000000f0: c750 7ebe b988 3fbe 883f ce3d eea3 50bd
00000100: 79ee 3ebd bbd0 81bc 4665 c43d b458 1bbe
00000110: 6c88 d0be eb38 78be c10b 993d ff94 613c
00000120: 895f 7f3b 37bd 94bd 5e8f 11bd 3f25 37be
00000130: 4758 b7be 9285 43be ad79 d83c 4963 bc3d
00000140: 4a61 19bd c58c 02bd c3aa db3d b786 6cbe
00000150: ae1f 8ebe 62ae 48be 3c99 b13d 7caf 4dbd
00000160: f48e 9bbd d59c 903c bef8 bf3d e1e1 24be
00000170: 7dc2 87be 8f23 acbd 5e50 8f3c 03cc 32bd
00000180: ee23 d73c 7bcc 81bc 304e 563c dde6 74be
00000190: 42bf b2be 8976 f7bd 7517 383d e0a7 8ebd
000001a0: 7f30 e8bb b9e6 96bc e10a e8bb 120d 83be
000001b0: 9c97 adbe 43de 3dbe 3299 c93d cc21 2b3d
000001c0: 652c 7b3d d029 3bbc f233 2f3d c6f7 82be
000001d0: ec82 89be bf10 42be 352c 34b9 d620 33bd
000001e0: 0667 c63c 0eeb dd3c 6e33 973d d022 66be
000001f0: 849d aabe 9ac4 40be 7679 a63c 6d8d 92bd
00000200: 690e afbb ac20 63bc 907e cd3d cdb6 b4bd
00000210: 4e68 d8be 18c6 16be 9c16 eebb 4a99 26bd
00000220: ae53 febd 8966 a4bd 4f80 6c3d e4cc 0bbe
00000230: 4e58 91be a4a6 8ebe 5bd4 583d a194 d7bc
00000240: ef44 59bc 5219 0f3d 8d82 d63d 7500 17be
00000250: b1dd 84be f58d 73be c309 7f3d f180 d5bc
00000260: f8f4 17bd 9cb7 4ebd c5c5 143e 5653 49be
00000270: 582a 8fbe 58a2 f1bd 73e0 bc3d ec86 36bd
00000280: 0b40 ec3c 8b05 ce3c e496 3f3d 36da 70be
00000290: abf5 90be 767d 24be 47a0 833c ef77 433d
000002a0: 26c0 a73b 573a 14bc bae5 5f3c fd82 61be
000002b0: aa38 7abe d2b2 2cbe b6d7 cfbc afaa b53a
000002c0: d1dc 81bc 1f96 a93d 0eea 123e f99b 98be
000002d0: beef 8bbe 49fa d2bd cb5f 213d fced ccbc
000002e0: a076 9d3d 8f9f bf3d 27e6 c23d 0e3c 40be
000002f0: 68b4 a0be ba2c 15be a063 9a3c 07d6 04bd
00000300: f4eb 0e3d 1573 a93d 6cfc c53c 00ca 55be
00000310: 9739 9dbe 039f 40be 3727 373c 8149 f73d
00000320: 2073 91bd 381b 15bd f49b c63d 028a 1cbe
00000330: 1d4c 93be a5ed 70be 75a5 19bd 2058 423d
00000340: 140f 3fbc a226 6e3d 3635 ee3d 7917 3abe
00000350: 66ef b2be 27e6 59be e35f 6cbd ada4 0f3e
00000360: 55b2 753c b528 9f3d 33fe cb3d a449 4ebe
00000370: 05b8 8fbe cb5b d0bc 99c9 91bd 6073 2a3d
00000380: bd40 cabd 46bd b13d 902b 9e3d 5618 1cbe
00000390: a4cd 60be 4ad7 f7bd 6111 f6bd cb0d d43d
000003a0: 602b 223c ab98 5a3d 869c 863d 5e03 79be
000003b0: a67f 25be 1f0b 9bbd fc80 fcbd c462 63bc
000003c0: fb03 393d 1671 b9bc 6fd9 953d 4704 aabe
000003d0: 8ad4 21be 99fd debc 4c75 1ebe af66 193d
000003e0: 195d d1bc 02ca f83d 16fb b63d d2ca 6cbe
000003f0: 7331 cdbd 14e2 3e3c 36bc 08be bdd4 41bd

cnn.0.bias f4 [16]
-0.03429135 -0.0351839 -0.025518125 -0.067255415 -0.026473556 -0.014721721 -0.006490038 -0.19801822
-0.010029231 -0.010766701 -0.012490254 -0.011372678 -0.026047595 -0.021973353 -0.027514469 -0.03157146
00000000: 1675 0cbd fe1c 10bd 630b d1bc 35bd 89bd
00000010: 12df d8bc 6033 71bc 62aa d4bb 4ac5 4abe
00000020: a551 24bc d166 30bc eca3 4cbc 7854 3abc
00000030: c461 d5bc 7601 b4bc 0666 e1bc 1351 01bd

cnn.2.weight f4 [32, 16, 4, 4]
0.18684565 -0.019376919 -0.05613771 -0.1303893 0.1427447 -0.014945092 -0.038340893 -0.09607712
0.010707064 -0.052267525 -0.04291391 0.030768381 0.10092915 -0.0042457487 0.03512696 0.0052354974
0.098963805 -0.008442078 -0.087037064 0.012501336 0.051783074 -0.14144532 -0.1243041 -0.021398865
-0.010977258 -0.15161288 -0.0923512 0.02106121 -0.06087941 -0.031981856 0.074392155 0.009487976
0.25704563 -0.111000076 -0.14903995 -0.21957806 0.32383263 -0.08443773 -0.25326732 -0.15815867
0.23738074 -0.02892578 -0.19465667 0.035274792 0.17336178 -0.03286547 -0.117908046 -0.044622067
0.10887084 -0.24800338 -0.05695622 -0.11409267 0.0205222 -0.15197067 -0.14086954 -0.07059682
0.17026015 -0.07937239 -0.1600558 -0.18251531 -0.067607544 0.0683781 -0.07204012 0.0148524735
0.07741457 0.040597145 -0.11720679 -0.028620526 0.0849986 -0.0026734408 -0.0075956797 -0.10675664
0.022288915 -0.050885953 0.040471233 0.0021354193 0.11636219 0.041337542 0.086107776 -0.0061016134
0.107946455 0.020200942 0.04985362 -0.08924877 0.17713787 -0.05730765 -0.10932603 -0.14784177
0.20109531 -0.11421024 -0.17693648 -0.14184156 0.0745104 -0.08152313 -0.20667006 -0.13596675
0.13631323 -0.05481519 -0.0014795972 -0.090139784 0.06895516 -0.0609487 -0.08209422 -0.0066152317
-0.028745426 0.05717681 0.033597607 -0.057450347 0.09978595 -0.054423228 0.15483853 -0.065046385
-0.1504489 -0.059877012 -0.04793326 -0.022394931 -0.08066077 -0.027818937 0.041909724 -0.003921921
0.015072149 -0.013060577 0.014107307 -0.048838556 -0.067547046 -0.060994 0.017335802 -0.11899474
0.22153893 0.037036393 -0.09318602 -0.0938443 0.11216408 0.07866958 -0.025414186 -0.1467009
0.06495286 -0.036432475 -0.008731694 0.014645011 0.01670286 0.07464229 0.07905331 -0.02221791
0.06830794 0.0019281757 0.07221212 -0.009963284 0.21950892 -0.026615502 -0.08986278 0.0056246864
0.21597594 -0.14023577 -0.15171164 -0.02897283 0.22960223 0.02735245 -0.24168292 -0.1083342
0.2638294 -0.11303884 0.020460177 -0.110993594 0.2812296 -0.012833719 -0.104301564 0.09755041
0.35392237 -0.06879713 -0.18679217 -0.03507477 0.14873779 -0.051201586 -0.16350192 -0.21863507
0.17237356 -0.09714615 -0.02018537 0.074653365 0.2776498 0.029485637 -0.13261405 0.15051642
0.2511876 -0.027598262 -0.24098307 -0.023889525 0.046867616 0.0077103884 -0.19369453 -0.12684545
-0.0730342 -0.023618715 -0.15310742 0.20425421 -0.053368196 0.048204154 -0.069081515 0.16040982
0.019334218 -0.09349189 -0.13925846 0.07140098 0.0027871255 -0.19854648 -0.14161278 -0.067659356
-0.13947833 -0.0036286353 -0.1119005 0.12123614 -0.09182697 -0.0073229983 -0.02697872 0.101579644
-0.09431012 -0.11677657 -0.11194556 0.09952222 -0.041784935 -0.17883903 -0.05017211 -0.10753321
0.25776643 -0.100964196 -0.20267 -0.22919235 0.28992385 -0.04048287 -0.19775854 -0.19801043
0.25656036 -0.083420515 -0.2195114 -0.08637947 0.13382854 -0.008091473 -0.13648099 -0.07154136
0.097567104 -0.115236744 -0.038105328 -0.025177196 0.04422303 -0.012222195 -0.10307086 0.028132515
0.08345852 -0.093358405 -0.10278376 0.043349374 0.012530555 -0.14629246 -0.057785332 -0.093822144
00000000: 7754 3f3e 58bc 9ebc a8f0 65bd c684 05be
00000010: ab2b 123e 42dc 74bc 570b 1dbd 15c4 c4bd
00000020: ae6c 2f3c 7916 56bd 7fc6 2fbd f90d fc3c
00000030: f1b3 ce3d ec1f 8bbb 4ae1 0f3d 898e ab3b
00000040: 89ad ca3d a450 0abc 7d40 b2bd 67d2 4c3c
00000050: 7d1a 543d 0bd7 10be 2693 febd ac4c afbc
00000060: f5d9 33bc 6840 1bbe a022 bdbd 8f88 ac3c
00000070: b05c 79bd 68ff 02bd ea5a 983d 7573 1b3c
00000080: 7c9b 833e 0254 e3bd ee9d 18be 12d9 60be
00000090: 64cd a53e b0ed acbd 41ac 81be 59f4 21be
000000a0: f013 733e c2f5 ecbc 1454 47be 4d7c 103d
000000b0: c085 313e f19d 06bd c679 f1bd a1c5 36bd
000000c0: adf7 de3d 99f4 7dbe ed4a 69bd 6ba9 e9bd
000000d0: 2c1e a83c 339e 1bbe 1b40 10be 1195 90bd
000000e0: ad58 2e3e fe8d a2bd abe5 23be 4be5 3abe
000000f0: d375 8abd d109 8c3d c589 93bd ca57 733c
00000100: 888b 9e3d 3149 263d 1d0a f0bd 9875 eabc
00000110: bf13 ae3d e534 2fbb 2ee5 f8bb 3aa3 dabd
00000120: 3e97 b63c ca6d 50bd 2ac5 253d 64f2 0b3b
00000130: 4d4f ee3d 8e51 293d 4659 b03d 0bf0 c7bb
00000140: 0813 dd3d 727c a53c 4f33 4c3d 0fc8 b6bd
00000150: a163 353e 6dbb 6abd 53e6 dfbd d563 17be
00000160: eeeb 4d3e 0fe7 e9bd d62e 35be ea3e 11be
00000170: e998 983d 99f5 a6bd 51a1 53be de3a 0bbe
00000180: b295 0b3e e585 60bd 0bef c1ba 359b b8bd
00000190: 5d38 8d3d 58a5 79bd 0421 a8bd 96c4 d8bb
000001a0: 877b ebbc 3b32 6a3d a59d 093d 0e51 6bbd
000001b0: 935c cc3d e4ea 5ebd fe8d 1e3e 0a37 85bd
000001c0: 470f 1abe 9941 75bd ab55 44bd 9375 b7bc
000001d0: 7931 a5bd 8ae4 e3bc 88a9 2b3d 7583 80bb
000001e0: 2df1 763c 08fc 55bc 5622 673c f00a 48bd
000001f0: 1b56 8abd d8d4 79bd d003 8e3c 84b3 f3bd
00000200: 1adb 623e 79b3 173d 50d8 bebd 7131 c0bd
00000210: 48b6 e53d 841d a13d 6931 d0bc c338 16be
00000220: 0106 853d 383a 15bd 610f 0fbc a1f1 6f3c
00000230: 70d4 883c 0fde 983d b4e6 a13d 5602 b6bc
00000240: 09e5 8b3d d7ba fc3a f3e3 933d 0b3d 23bc
00000250: f2c6 603e c108 dabc fa09 b8bd 4a4f b83b
00000260: cc28 5d3e f799 0fbe 4c5a 1bbe 6e58 edbc
00000270: d91c 6b3e 3f12 e03c ba7b 77be 52de ddbd
00000280: a614 873e e880 e7bd 1a9c a73c 9c50 e3bd
00000290: 53fd 8f3e 8544 52bc 0f9c d5bd 82c8 c73d
000002a0: 5035 b53e 82e5 8cbd 7246 3fbe 90aa 0fbd
000002b0: b84e 183e c1b8 51bd 0c6d 27be dfe1 5fbe
000002c0: b282 303e 90f4 c6bd ca5b a5bc dde3 983d
000002d0: 1d28 8e3e dd8b f13c facb 07be fa20 1a3e
000002e0: a99b 803e c015 e2bc 44c4 76be f7b3 c3bc
000002f0: 42f8 3f3d 6da7 fc3b dc57 46be c6e3 01be
00000300: f492 95bd 097c c1bc 31c8 1cbe 0428 513e
00000310: 9c98 5abd b871 453d 9c7a 8dbd 7942 243e
00000320: cb62 9e3c ad78 bfbd c599 0ebe ad3a 923d
00000330: 35a8 363b c54f 4bbe f102 11be fd90 8abd
00000340: 68d3 0ebe 66ce 6dbb 172c e5bd a74a f83d
00000350: c70f bcbd c3f5 efbb 7a02 ddbc fd08 d03d
00000360: aa25 c1bd 8e28 efbd b743 e5bd 4ed2 cb3d
00000370: ae26 2bbd 9421 37be 4581 4dbd 5f3a dcbd
00000380: f6f9 833e 51c6 cebd b988 4fbe 66b1 6abe
00000390: e670 943e 5ed1 25bd 3781 4abe 3fc3 4abe
000003a0: e15b 833e 60d8 aabd 99c7 60be b8e7 b0bd
000003b0: 590a 093e 1992 04bc acc1 0bbe 4784 92bd
000003c0: 43d1 c73d 3e01 ecbd 5514 1cbd 6840 cebc
000003d0: 3523 353d 9a3f 48bc d116 d3bd 2976 e63c
000003e0: 4dec aa3d b132 bfbd 4b80 d2bd 1d8f 313d
000003f0: f54c 4d3c b1cd 15be 50b0 6cbd d325 c0bd

cnn.2.bias f4 [32]
-0.018540082 -0.0462881 0.006069049 -0.018565837 -0.084968895 -0.025483798 0.016565492 0.07284676
0.02023005 -0.038568165 -0.04941442 0.00085739844 0.042260222 0.02854377 -0.044910256 -0.0104843555
-0.12428177 0.02038197 0.0073077735 0.04082465 0.008916072 0.008598171 -0.0024693026 0.00035450375
-0.1033576 -0.05960894 0.066313565 -0.024130838 -0.07340788 -0.058449812 -0.14343871 -0.048729993
00000000: 5fe1 97bc 9798 3dbd dfde c63b 6217 98bc
00000010: 2c04 aebd 66c3 d0bc 5bb4 873c af30 953d
00000020: 7db9 a53c a7f9 1dbd c666 4abd 09c3 603a
00000030: 0e19 2d3d a0d4 e93c d1f3 37bd 93c6 2bbc
00000040: 7187 febd 17f8 a63c 0c76 ef3b c037 273d
00000050: b714 123c 58df 0c3c 06d4 21bb b0dc b939
00000060: 26ad d3bd 8128 74bd 68cf 873d 09ae c5bc
00000070: df56 96bd 1269 6fbd 99e1 12be 1a99 47bd

dense.0.weight f4 [2, 768]
-0.013782233 0.0027506463 0.10273644 -0.07447444 0.15229869 -0.05807227 0.12934978 -0.04292949
-0.027872695 0.012775945 0.061421473 -0.14735976 -0.006265953 -0.20517012 0.15060076 0.06575448
-0.014240782 0.040934496 -0.054593727 -0.027306298 -0.18203674 -0.1398269 0.12403139 0.044542186
-0.10050118 -0.10078923 -0.06793452 0.23133652 0.22319002 0.0816659 -0.008157409 -0.0075486447
-0.05872507 -0.021120062 -0.115908705 0.23312473 0.05843054 0.03396772 0.15612958 -0.044314403
-0.08930433 0.062160753 -0.05949916 0.12183334 -0.1114697 0.009204559 0.16892172 0.0702326
-0.102504425 -0.09199237 0.0012561558 0.20192577 -0.10277984 0.13141632 -0.028426468 0.04388495
-0.056931973 -0.034787968 -0.023512805 0.19310157 -0.11475487 0.20156212 0.044619083 0.016312089
-0.083590046 -0.049890462 -0.004461451 0.03939106 -0.051844392 0.09205734 -0.0070333146 0.025424266
-0.025415517 -0.008107767 0.12396325 -0.004396651 0.2182156 -0.18108366 0.027014103 -0.04647398
-0.05441046 -0.052487407 0.011643253 -0.07915751 0.24401827 -0.042666342 0.08283459 -0.0030613837
-0.08234931 0.020688985 0.026359607 -0.09742631 0.07400759 -0.081447415 0.12695304 0.042006798
-0.0068388428 -0.00890483 -0.028745327 0.026411261 -0.03691812 0.010562351 0.015359751 0.007555845
-0.023738572 0.015798151 -0.019224549 -0.01653389 0.0062386123 -0.014457153 0.080854796 0.05055705
0.03778206 -0.021540202 -0.025589703 0.014624848 -0.0031077238 0.026655564 0.011760083 -0.1424347
-0.007123187 -0.010379745 0.029372675 -0.020925498 0.0043085804 0.031988207 0.030423371 -0.008614001
0.03618634 0.034535438 -0.009750136 -0.05026663 0.044820365 0.0018248865 -0.014407786 0.013446365
0.010794501 0.030853607 -0.044696014 0.08700555 0.079040736 -0.18959294 0.037853505 0.07122829
0.021928769 -0.03084689 0.004622797 0.07234991 0.16192985 -0.15949434 0.05174023 0.08297248
0.02350537 -0.021232057 -0.0033672347 0.07414469 0.2227435 0.009950425 0.010178898 0.012423971
0.009686265 -0.032504942 -0.11752196 -0.03308483 0.12732199 -0.017169382 0.03546565 0.028981054
-0.09771973 -0.04849663 0.030340737 0.227419 -0.38750106 0.08774662 0.029699154 0.051481586
-0.057222024 -0.03523038 -0.015384332 0.22770678 -0.19370581 0.0028532962 0.026619773 0.04439612
-0.08791264 -0.06098144 -0.02877015 0.13703763 -0.052419268 0.01934766 -0.02968847 -0.006249513
-0.07794114 -0.091852315 0.079040244 0.22569574 -0.22114913 0.024065353 0.00021787127 0.06084008
-0.079977974 -0.09102051 0.016881501 0.16852623 -0.21194838 -0.00960961 0.12250522 0.07031365
-0.10077738 -0.10548112 0.014380318 -0.008140502 -0.049734358 0.13233896 0.093586735 0.07466359
-0.032203242 -0.0734571 0.056944 0.21675803 -0.0990526 0.0766276 0.015409543 0.012514558
-0.05917944 -0.052145176 0.01965289 0.19562721 -0.17677093 0.12869748 0.14646076 0.04966166
-0.042759534 -0.035937898 0.0067773196 0.027893828 -0.08843969 0.12191597 0.026743857 0.053991187
-0.056705695 -0.07593427 -0.0652316 -0.07039938 0.0702348 0.021843607 -0.15424006 -0.08394672
-0.018087717 -0.029220423 -0.033563297 0.010093392 0.035013784 0.0116747385 -0.13287213 -0.05775367
00000000: e0ce 61bc 3044 343b 7c67 d23d 0e86 98bd
00000010: 30f4 1b3e 30dd 6dbd 4574 043e d5d6 2fbd
00000020: 4755 e4bc 3252 513c 1595 7b3d 7ae5 16be
00000030: a052 cdbb 1e18 52be 1637 1a3e 49aa 863d
00000040: 2b52 69bc eeaa 273d ac9d 5fbd 75b1 dfbc
00000050: d767 3abe c82e 0fbe 2b04 fe3d de71 363d
00000060: 90d3 cdbd 956a cebd 4121 8bbd 7be3 6c3e
00000070: ed8b 643e 7440 a73d a7a6 05bc 9f5a f7bb
00000080: b389 70bd fb03 adbc 8b61 edbd 40b8 6e3e
00000090: dd54 6f3d bc21 0b3d 6fe0 1f3e 0583 35bd
000000a0: 30e5 b6bd 469c 7e3d 64b5 73bd c283 f93d
000000b0: 3a4a e4bd b8ce 163c d1f9 2c3e 1cd6 8f3d
000000c0: d7ed d1bd 7f66 bcbd 98a5 a43a a1c5 4e3e
000000d0: 3d7e d2bd 0092 063e a0de e8bc b5c0 333d
000000e0: 8031 69bd d47d 0ebd ed9d c0bc 6bbc 453e
000000f0: 9a04 ebbd 4d66 4e3e 80c2 363d eea0 853c
00000100: 4231 abbd f159 4cbd 5d31 92bb 8558 213d
00000110: c95a 54bd 8f88 bc3d b877 e6bb 8d46 d03c
00000120: 3434 d0bc 71d6 04bc 72e0 fd3d c811 90bb
00000130: e973 5f3e ff6d 39be ae4c dd3c 805b 3ebd
00000140: 81dd 5ebd 09fd 56bd 58c3 3e3c 551d a2bd
00000150: eddf 793e e7c2 2ebd 2ea5 a93d 7fa1 48bb
00000160: c1a6 a8bd f27b a93c 1af0 d73c 7287 c7bd
00000170: 4b91 973d e7cd a6bd faff 013e 520f 2c3d
00000180: 5f18 e0bb 90e5 11bc 527b ebbc 6e5c d83c
00000190: 7437 17bd b60d 2d3c 77a7 7b3c 0697 f73b
000001a0: 6577 c2bc 206b 813c cd7c 9dbc 1572 87bc
000001b0: 466d cc3b b2dd 6cbc 3397 a53d e914 4f3d
000001c0: 5dc1 1a3d 1475 b0bc 7fa1 d1bc 0f9d 6f3c
000001d0: f4aa 4bbb c55c da3c 5dad 403c 67da 11be
000001e0: a069 e9bb ce0f 2abc f79e f03c f36b abbc
000001f0: fe2e 8d3b 1106 033d 6f3a f93c bd21 0dbc
00000200: 2138 143d 0875 0d3d 09bf 1fbc 62e4 4dbd
00000210: 8f95 373d 0831 ef3a a20e 6cbc 244e 5c3c
00000220: 6bdb 303c b4c0 fc3c 2b13 37bd f72f b23d
00000230: 1ce0 a13d a724 42be 470c 1b3d 23e0 913d
00000240: f6a3 b33c 9eb2 fcbc d57a 973b 312c 943d
00000250: f0d0 253e 7c52 23be 90ed 533d 7aed a93d
00000260: 558e c03c daee adbc d3ac 5cbb 2cd9 973d
00000270: df16 643e 1b07 233c 65c5 263c e98d 4b3c
00000280: 24b3 1e3c e723 05bd 5aaf f0bd f583 07bd
00000290: b260 023e cea6 8cbc 6e44 113d ad69 ed3c
000002a0: 4821 c8bd 67a4 46bd 238d f83c 87e0 683e
000002b0: 8a66 c6be 80b4 b33d a44b f33c 5bde 523d
000002c0: a461 6abd bb4d 10bd 910e 7cbc f72b 693e
000002d0: d15a 46be 5efe 3a3b b611 da3c b5d8 353d
000002e0: 8b0b b4bd adc7 79bd 61af ebbc 9853 0c3e
000002f0: 96b5 56bd fc7e 9e3c 3c35 f3bc b7c8 ccbb
00000300: 9b9f 9fbd 111d bcbd dadf a13d c91c 673e
00000310: eb74 62be b424 c53c 6074 6439 7333 793d
00000320: 7ecb a3bd f668 babd 134b 8a3c 2492 2c3e
00000330: ff08 59be a071 1dbc 04e4 fa3d 9a00 903d
00000340: 5f64 cebd 7c06 d8bd 6d9b 6b3c bd5f 05bc
00000350: 41b6 4bbd dd83 073e 67aa bf3d 39e9 983d
00000360: 8ce7 03bd ad70 96bd 1d3e 693d d1f5 5d3e
00000370: 17dc cabd eeee 9c3d 4f78 7c3c dc09 4d3c
00000380: 2466 72bd 2e96 55bd 19ff a03c 8052 483e
00000390: 7003 35be 46c9 033e cff9 153e 066a 4b3d
000003a0: 9f24 2fbd 9e33 13bd 4714 de3b 9981 e43c
000003b0: de1f b5bd 15af f93d ef15 db3c dd25 5d3d
000003c0: 3b44 68bd 6d83 9bbd 2598 85bd 8d2d 90bd
000003d0: 43d7 8f3d 5df1 b23c 1bf1 1dbe 42ec abbd
000003e0: b12c 94bc ab5f efbc ab79 09bd c15e 253c
000003f0: 9d6a 0f3d 6747 3f3c a20f 08be 1d8f 6cbd

dense.0.bias f4 [2]
-0.0048383055 0.0032328584
00000000: a68a 9ebb 5dde 533b
